app/core_ai/data.pth (torch, 131697 bytes, 6 tensors)

l1.weight f4 [8, 2637]
0	0x3fa2f0a8	1.2729692
1	0xbe2406bb	-0.16018192
2	0x3fa3263d	1.2746044
3	0x3f4a7178	0.7907939
4	0x3f1c3d61	0.61031157
5	0x3c6adfe2	0.014335604
6	0x3f16df05	0.5893405
7	0x3f03431b	0.5127427
8	0x3f67ad42	0.90498745
9	0x3f01bc68	0.5067811
10	0xbe3edd3b	-0.1863908
11	0x3eea0273	0.45704994
12	0x3ee7e50f	0.45291945
13	0x3eec9c98	0.46213222
14	0x3f14ae70	0.5807867
15	0x3e76a961	0.2408805
16	0x3eef92ae	0.46791595
17	0x3e5bb06c	0.21454018
18	0x3c2fae88	0.010722764
19	0x3e02fdf6	0.12792191
20	0x3fa7d248	1.3111048
21	0xbdd73685	-0.10508446
22	0x3e025841	0.12728979
23	0x3d2f335b	0.042773586
24	0x3f74d5ee	0.9563893
25	0xbe3d3d96	-0.18480524
26	0xbd681bf0	-0.05666727
27	0x3e588c3e	0.21147248
28	0x3e4530d5	0.19256909
29	0x3dd2bd56	0.10290019
30	0x3e32f84d	0.17477532
31	0x3c951336	0.018197637
32	0xbd818943	-0.06325009
33	0xbe04f09a	-0.12982407
34	0x3e958f69	0.29210976
35	0x3f65fb9c	0.8983705
36	0x3e2ed4f4	0.17073423
37	0x3d0f14c9	0.03493193
38	0x3dd66977	0.104693346
39	0xbee6d68e	-0.45085567
40	0xbe86a7b2	-0.26299816
41	0xbe61dd0e	-0.22056982
42	0xbe590525	-0.21193369
43	0xbd7a6799	-0.061133955
44	0x3d9ce7b1	0.07661379
45	0x3ecd2168	0.4006455
46	0xbce5edd8	-0.028067514
47	0x3f2db8f5	0.6786035
48	0xbee5a0d2	-0.4484926
49	0x3f96871b	1.1759981
50	0xbc849267	-0.016183091
51	0x3eb5d35a	0.3551281
52	0x3f1c5419	0.6106582
53	0x3f956f25	1.1674544
54	0xbc19c7b5	-0.009385993
55	0x3fd2fd38	1.6483526
56	0x3fad0adb	1.3518938
57	0x3f92822f	1.1445979
58	0x3ec929fa	0.39289838
59	0x3e8aded0	0.27123117
60	0x3ddd309a	0.10800286
61	0x3e9415bb	0.2892283
62	0x3fac32da	1.3453019
63	0x3ec89082	0.3917275
64	0x3f129e83	0.5727312
65	0x3f2b702d	0.6696804
66	0x3ec70c64	0.3887664
67	0xbeac47d4	-0.3364855
68	0x40390b53	2.8913162
69	0x3eca45ad	0.39506283
70	0xbe06ff2c	-0.13183278
71	0x3e479245	0.19489391
72	0x3eb37f2d	0.35057965
73	0x3e523531	0.20528103
74	0xbc912834	-0.017719366
75	0x3fcb9ac3	1.5906605
76	0x3f124945	0.5714305
77	0xbfa4ce25	-1.287541
78	0x3c403dad	0.011733455
79	0xbcdc9751	-0.026927622
80	0xbe395626	-0.1809927
81	0x3f921880	1.1413727
82	0x3e47ce8b	0.19512384
83	0x3eb916a3	0.36150083
84	0x3f58147f	0.84406275
85	0x3fa6ca6b	1.3030523
86	0xbd0f9e79	-0.03506324
87	0x3f2dcef1	0.6789389
88	0x3dcd4d91	0.1002456
89	0xbd77ab38	-0.06046602
90	0x3f990183	1.1953586
91	0x3db08b4a	0.08620317
92	0x3f84622f	1.0342463
93	0xbdbcd8d0	-0.09221041
94	0x3fc4b5e6	1.5368011
95	0xbfd4e85a	-1.6633408
96	0xbf11b8d9	-0.5692268
97	0xbf2bc216	-0.67093027
98	0xbfd21b80	-1.6414642
99	0xbeb114c0	-0.34586143
100	0xbf844c7a	-1.0335839
101	0xbeac829b	-0.33693394
102	0xbea6a285	-0.32545868
103	0xc011c324	-2.2775354
104	0xbd4348b9	-0.047676776
105	0xbe0170ae	-0.1264064
106	0x3d9675ec	0.073467106
107	0xbf63639d	-0.8882387
108	0xbd2c4c19	-0.04206476
109	0xbeb36efd	-0.35045615
110	0x3c8c5d10	0.01713422
111	0xbe1f8016	-0.15576205
112	0xbd0f46cd	-0.03497963
113	0xbed7959d	-0.42106333
114	0xbfa2fb5c	-1.2732959
115	0xbbd8bc8b	-0.006614273
116	0xbf513826	-0.817263
117	0xbd584fc0	-0.05281043
118	0xbfe2f6d4	-1.7731576
119	0xbe7eadd7	-0.24871002
120	0xbd333c00	-0.043758392
121	0x3e4c4601	0.1994858
122	0x3e740f50	0.23833966
123	0x3e239c57	0.15977608
124	0xbeec41da	-0.4614399
125	0xbf0d9a43	-0.5531351
126	0x3e962b42	0.29329878
127	0xbb83a73a	-0.0040177377
128	0xbed48d00	-0.41513824
129	0x3da3a4cd	0.07990418
130	0xbfc5fa0d	-1.5466934
131	0xbd3ecae7	-0.04658022
132	0xbe69d6e3	-0.22835879
133	0xbe4b20c2	-0.19836715
134	0xbe4fba32	-0.20285872
135	0xbe920ba2	-0.285245
136	0x3c5bcd7c	0.0134156905
137	0xbe933e21	-0.28758338
138	0x4053bed3	3.308522
139	0x3e9181b6	0.28419274
140	0xbc98711d	-0.018608624
141	0x3e989844	0.2980367
142	0x3f23b1bf	0.63943094
143	0x3e809975	0.25117078
144	0xbd5d7e16	-0.054075323
145	0x3dde18a5	0.10844544
146	0xbd014358	-0.031558365
147	0xbd883ebe	-0.06652592
148	0x3e8a510a	0.27014953
149	0xbd18697e	-0.03720998
150	0x3e24e80d	0.16104145
151	0xbf9fb971	-1.2478467
152	0x3c3e4c82	0.011614921
153	0xbc5d5b32	-0.013510512
154	0xbe078c9d	-0.13237233
155	0x3c176412	0.009240167
156	0xbc9b8a29	-0.018986778
157	0xbdeb5f9e	-0.11492847
158	0x3fccb22a	1.5991871
159	0xbd7e5809	-0.062095676
160	0x3fc95cbf	1.5731429
161	0xbe6120cc	-0.21985167
162	0x3f281c91	0.6566859
163	0xbdf96b12	-0.12178625
164	0x3ec0d037	0.37658855
165	0xbffea7ef	-1.9894999
166	0xbda882f1	-0.082281
167	0xbf6cd2fc	-0.92509437
168	0x3d0acfe3	0.033889662
169	0x3c84f1a2	0.0162285
170	0xbde66a53	-0.112507485
171	0x3d6baac3	0.057535898
172	0xbc98a023	-0.018631047
173	0x3c86f856	0.016475838
174	0xbc00a201	-0.007851125
175	0x3f1f975d	0.6234034
176	0x3f814650	1.0099583
177	0x3eb227c6	0.3479597
178	0x3e4ba861	0.1988845
179	0x3ee628c1	0.44952968
180	0x3e37748c	0.17915553
181	0xbe1c14ef	-0.1524236
182	0x3e5278a8	0.20553839
183	0xbedf81ae	-0.43653625
184	0xbe5a7245	-0.21332653
185	0xbd9e7793	-0.07737651
186	0x3ee107e8	0.43951344
187	0xbed76ef1	-0.4207683
188	0x3ffe0b1a	1.9847138
189	0xbc7a7776	-0.015287271
190	0xbd0d7690	-0.034536898
191	0x3d846f23	0.0646651
192	0xbe9aad4f	-0.3021035
193	0x3e8e0b87	0.2774317
194	0x3f0fc1ec	0.56155276
195	0x3e90a450	0.2825036
196	0x3f02f3f1	0.51153475
197	0x3f394ac2	0.72379696
198	0x3ec40d43	0.38291368
199	0x404bbe18	3.1834774
200	0x3f4ba03f	0.7954139
201	0x3f9096f1	1.1296064
202	0xbeba82e4	-0.36427987
203	0x3f7feb23	0.99968165
204	0x3ac31e79	0.0014886401
205	0xbe15222b	-0.14563815
206	0xbdf0926c	-0.11746678
207	0x3c90b326	0.01766355
208	0xbe98cf40	-0.2984562
209	0x3ec09cc9	0.37619618
210	0xbe1518b8	-0.1456021
211	0x3f7a8b93	0.97869223
212	0x3f08e271	0.5347052
213	0xbeb63da3	-0.355939
214	0x3efd40e7	0.4946358
215	0x3e7b03f5	0.24513228
216	0x3f5a3ce3	0.85249156
217	0x3fba6d53	1.4564613
218	0x3db0fdbb	0.08642145
219	0x3d908aa3	0.07057693
220	0x3e8c28ce	0.27374882
221	0x3d0e2fbe	0.0347135
222	0x3e368b76	0.17826638
223	0x3ec5a6ba	0.38603765
224	0x3e9cf8cd	0.3065857
225	0x3b1c1f77	0.0023822465
226	0x3c9bbdea	0.019011457
227	0x3be5a964	0.0070087183
228	0xbdddc7e3	-0.10829141
229	0x3e571163	0.21002726
230	0x3ff19f28	1.8876696
231	0x3cf106f9	0.02942227
232	0x3e191bba	0.14951983
233	0x3e587b04	0.21140677
234	0xbd1344d5	-0.035954315
235	0x3f0279b8	0.5096698
236	0x3db01bd5	0.085990585
237	0x3d8c4e24	0.06850842
238	0xbe074c57	-0.13212715
239	0x3c888be4	0.016668268
240	0x3e4784a6	0.19484195
241	0x3e2bb31f	0.16767548
242	0xbcd2d327	-0.02573545
243	0xbb2de590	-0.0026534535
244	0x3dda173b	0.10648962
245	0x3ef0cc37	0.47030804
246	0x3d6cbc21	0.0577966
247	0x3e583a3b	0.21115963
248	0x3de21a75	0.110402025
249	0x3f0984fc	0.53718543
250	0xbc3e05ef	-0.011598094
251	0x3e5f2b5b	0.21793883
252	0x3f05328e	0.52030265
253	0xbb683498	-0.003543174
254	0x3e459a87	0.19297229
255	0x3f1b5e59	0.6069084

l1.bias f4 [8]
0	0xbcc14427	-0.023592068
1	0xbeb5bdf9	-0.354965
2	0xbe60535c	-0.21906799
3	0xbf75cad8	-0.9601264
4	0xbe120d15	-0.14262803
5	0xbf40fddb	-0.7538735
6	0xbdc3770e	-0.09544192
7	0x3e82d777	0.25555012

l2.weight f4 [8, 8]
0	0x3d8510da	0.06497355
1	0x3f969a4b	1.1765836
2	0xbd1e32f2	-0.038622804
3	0x400e87a5	2.227029
4	0xbc9d7f48	-0.019225731
5	0xbf58c38d	-0.84673387
6	0xbf4cfabd	-0.80070096
7	0x3fa67b94	1.3006463
8	0xbfab73d2	-1.339472
9	0x3ec59c8c	0.38595998
10	0x3f89a04a	1.0752041
11	0x40841c04	4.12842
12	0x3fc07462	1.5035517
13	0x40185535	2.3802006
14	0xc004f9a3	-2.0777366
15	0xc007351b	-2.1126163
16	0x4084f755	4.155192
17	0x40398256	2.89858
18	0x4003440c	2.0510283
19	0x3f842c14	1.0325952
20	0xbf8596d4	-1.0436654
21	0x401bdfff	2.4355466
22	0xbfb90ae6	-1.4456451
23	0xbf5c11ea	-0.85964835
24	0x400ba37b	2.181853
25	0xbf7fcbc2	-0.99920285
26	0xc0351859	-2.829611
27	0x402bfcdd	2.6873085
28	0xbf5f061b	-0.8711869
29	0x403ca5cc	2.9476194
30	0x3fd1138d	1.6334091
31	0x3fa30eff	1.2738951
32	0x3f3fc64f	0.7491197
33	0x3f05821c	0.52151656
34	0xbf21c3b2	-0.6318923
35	0xbfaa3e35	-1.3300234
36	0x3fbd0d76	1.4769733
37	0x3f96c5d7	1.1779126
38	0xbe052149	-0.13000979
39	0x40163159	2.346762
40	0x3ff42498	1.9073668
41	0xbf79b24d	-0.9753769
42	0x40475bf3	3.1149871
43	0xbfd37336	-1.6519535
44	0xbfb2ea4e	-1.3977754
45	0x405c6615	3.4437306
46	0x3fedb653	1.8571266
47	0xbf128b30	-0.57243633
48	0xbf1ed829	-0.62048584
49	0x400c55ef	2.192745
50	0xbf8c6819	-1.0969268
51	0x3fc47988	1.5349588
52	0x402bb78b	2.6830776
53	0x3ee1383d	0.4398822
54	0x3fc58778	1.5431967
55	0xbf8232d5	-1.0171763
56	0x40929628	4.5808296
57	0xbeedece3	-0.46469793
58	0x40075bf7	2.114988
59	0x404797de	3.1186442
60	0xbfbe327a	-1.4859154
61	0xbf69f8e2	-0.9139539
62	0x3fa5ac93	1.294329
63	0x3ea9310f	0.3304524

l2.bias f4 [8]
0	0xbd709199	-0.058732603
1	0x3eb5c6fe	0.35503381
2	0xbe9a7978	-0.30170798
3	0xbf5526a1	-0.8326207
4	0xbf9fb71f	-1.2477759
5	0xbd3ff3e0	-0.046863437
6	0xbe32c7b6	-0.17458996
7	0xbf1de608	-0.61679125

l3.weight f4 [34, 8]
0	0xc0d15797	-6.541942
1	0xc0b6a99e	-5.708205
2	0xbfda2675	-1.7042986
3	0xc0141c9f	-2.314247
4	0xbff240b0	-1.8925991
5	0xc06c3712	-3.6908612
6	0xc11a4a58	-9.64315
7	0xc0cf06f3	-6.4695983
8	0xc0de87cc	-6.954077
9	0xc0aedcc7	-5.4644504
10	0xc056b71f	-3.3549268
11	0xbf8c8023	-1.0976604
12	0xc074621d	-3.8184884
13	0xc05d9db9	-3.4627516
14	0xc1344b89	-11.268441
15	0xc01ab3e1	-2.417229
16	0xc0f75b79	-7.729916
17	0xc05edc7a	-3.4822068
18	0xc10a99f5	-8.662587
19	0x3fd93196	1.6968257
20	0xc06e079d	-3.7192147
21	0xc0693614	-3.6439257
22	0xc0f55356	-7.666423
23	0xc02f10b7	-2.7353952
24	0xc0b60d9a	-5.6891603
25	0xc04fc4a3	-3.2463768
26	0xbf51c8f7	-0.81947273
27	0xc0e081c1	-7.015839
28	0xc0894545	-4.2897058
29	0xc0a36409	-5.1059613
30	0xc0c7ffc3	-6.249971
31	0xc0b45927	-5.635883
32	0xc090ffb5	-4.531214
33	0xc1333a06	-11.201666
34	0xc0cd2d2d	-6.4117646
35	0xbf866d11	-1.0502034
36	0xc012151e	-2.282539
37	0xc077d047	-3.8720872
38	0xc0b654fb	-5.6978736
39	0xbd1760b8	-0.036957473
40	0xc1d41809	-26.511736
41	0xbed39890	-0.41327333
42	0xc07e6c68	-3.9753666
43	0xc12072b3	-10.028003
44	0xc00a5af5	-2.1618016
45	0x3e782592	0.24233082
46	0xbf8a0df0	-1.0785503
47	0xc0af92dc	-5.486677
48	0xc091ec4c	-4.560095
49	0xc050580f	-3.2553747
50	0xc009730f	-2.1476476
51	0xc0d631b5	-6.6935678
52	0xc08ea1ac	-4.4572353
53	0xc124b843	-10.294986
54	0xc0b2aa82	-5.583314
55	0xbf9cd5b5	-1.2252718
56	0xc0bebc44	-5.9604816
57	0xc05175fb	-3.272826
58	0xc05e9bc9	-3.4782584
59	0xbf40d277	-0.75321144
60	0xc0bed5d0	-5.9636
61	0xc129793d	-10.592099
62	0xc10410f8	-8.254143
63	0xc006b4ad	-2.1047776
64	0xc0d00061	-6.5000463
65	0xc0b7b6d6	-5.741069
66	0xbfa8c3f4	-1.31848
67	0xc00717d0	-2.1108284
68	0xc0a99d9d	-5.30049
69	0xc1056b63	-8.338717
70	0xc160a9b2	-14.0414295
71	0x3f8b29be	1.0872114
72	0xc0d7d02c	-6.7441616
73	0xc107b523	-8.481723
74	0xc02c7894	-2.6948595
75	0xc08d76b1	-4.4207387
76	0xc0dc9ab0	-6.8938828
77	0xc033bbe9	-2.8083441
78	0xc1131506	-9.192633
79	0x3f883d44	1.0643697
80	0xc0c3a510	-6.113899
81	0xc061b3c4	-3.526597
82	0xc099fd4b	-4.8121696
83	0xbf843bc6	-1.0330741
84	0xc102562c	-8.146038
85	0xc0b20b8f	-5.563911
86	0xc091ae9c	-4.5525646
87	0xc084de50	-4.1521378
88	0xc121c983	-10.111697
89	0xc098d996	-4.776561
90	0xbff77e81	-1.9335481
91	0xc01b0be7	-2.4226015
92	0xc0f24a09	-7.5715375
93	0xc06e4c86	-3.7234206
94	0xc0cc9486	-6.3931303
95	0xc0721d10	-3.7830238
96	0xc0de900a	-6.955083
97	0xc0026b24	-2.0377893
98	0xc0027671	-2.038479
99	0xc0e45166	-7.1349363
100	0xc0271758	-2.6107998
101	0xc14f9a26	-12.975134
102	0xc084b4a2	-4.14705
103	0xc0a707b2	-5.2196894
104	0xc0a86d67	-5.263355
105	0xc0fd7a45	-7.9211755
106	0xc12772b0	-10.4655
107	0x3fc207f6	1.515868
108	0x3e8e2e0c	0.27769506
109	0xc0b09ccd	-5.5191407
110	0xc0017abf	-2.0231168
111	0xc0ae7632	-5.451928
112	0xc09f0d8e	-4.9704046
113	0xc0fb9938	-7.8624535
114	0xc00e67a3	-2.2250755
115	0xc069364d	-3.6439393
116	0xc02ef26e	-2.7335467
117	0xc160a659	-14.040612
118	0xc0891898	-4.284252
119	0xbc11fb4a	-0.00891001
120	0xc1019bf7	-8.100577
121	0xc0931f7b	-4.597593
122	0xc03de421	-2.967049
123	0xbfb48645	-1.4103476
124	0xc10a19ec	-8.631329
125	0xc05ad312	-3.4191327
126	0xc13b8337	-11.719535
127	0xbf79cb80	-0.9757614
128	0xc0c6db03	-6.214235
129	0xc026dc15	-2.6071827
130	0xc072dfcf	-3.7949102
131	0xbe12941e	-0.14314315
132	0xc037ce09	-2.8719504
133	0xc0d7e9f6	-6.7473097
134	0xc0f28006	-7.578128
135	0xc111044b	-9.063548
136	0xc0e2ca68	-7.087208
137	0xc10cefe0	-8.808563
138	0xc0b4db50	-5.6517715
139	0xbede9fde	-0.43481344
140	0xc0890e91	-4.283028
141	0xbfd93529	-1.6969348
142	0xc136cde8	-11.42527
143	0xbc78f6c7	-0.015195555
144	0xc06600a4	-3.593789
145	0xc04124a1	-3.0178607
146	0xc06d9ff3	-3.7128875
147	0xc109fb7e	-8.623899
148	0xc01052d4	-2.2550554
149	0xc0589b9c	-3.3844976
150	0xc0e75e8c	-7.2302914
151	0xbf11d9a4	-0.5697272
152	0xbecb940d	-0.3976139
153	0xc1eb09d0	-29.379791
154	0xbfdc7481	-1.7223054
155	0xbf8eacea	-1.1146519
156	0xbee41e92	-0.44554573
157	0xc12e6bbf	-10.901305
158	0xc0ad0d09	-5.407841
159	0xbf8ad70e	-1.084688
160	0xc0f68556	-7.7037764
161	0xc09ea01b	-4.957044
162	0xc07d58d6	-3.958547
163	0xc028479a	-2.6293702
164	0xc1099af6	-8.600332
165	0xc1183e20	-9.515167
166	0xc0c92184	-6.2853413
167	0x3ffbf3d9	1.9683791
168	0xc0c5291b	-6.1612678
169	0xc08ca0a3	-4.394609
170	0xc00b221a	-2.1739564
171	0xbfd94564	-1.6974301
172	0xc09a937d	-4.830504
173	0xc0b5f85c	-5.6865673
174	0xc1008542	-8.032534
175	0xc0acac9b	-5.39607
176	0xc09f98d9	-4.987408
177	0xc03319cc	-2.7984495
178	0xbfd2559a	-1.6432374
179	0xc0c8a401	-6.27002
180	0xc12648d3	-10.392779
181	0xc0cb2ea9	-6.349446
182	0xc1169ee2	-9.41379
183	0x3e549194	0.20758659
184	0xc0d80de3	-6.751695
185	0xbf840958	-1.0315351
186	0xbfe0de99	-1.7567931
187	0xc0e09de8	-7.0192757
188	0xc0c932dd	-6.287459
189	0xc0071bb0	-2.111065
190	0xc1437b8e	-12.217665
191	0xc01d8aa8	-2.461588
192	0xc1d9284e	-27.14468
193	0xbf207678	-0.6268077
194	0xc07aaa99	-3.9166625
195	0xc1035721	-8.208772
196	0xc0148ce6	-2.3210998
197	0x3ed7b13c	0.42127407
198	0xbfdc10d1	-1.7192632
199	0xc0efc201	-7.492432
200	0xbebceedd	-0.36900988
201	0xc19c6863	-19.55097
202	0xc02018a0	-2.501503
203	0x3f1c736a	0.6111361
204	0x3f20d039	0.6281772
205	0xc11ef58b	-9.934947
206	0xc0ab76c8	-5.3582497
207	0xc01b6955	-2.428304
208	0xc0cec5e6	-6.4616575
209	0xc0b2e05c	-5.5898876
210	0xc08f97c4	-4.487276
211	0xbe0b6aa4	-0.13614899
212	0xc0f6d14a	-7.713048
213	0xc0bda259	-5.926068
214	0xc12f7d29	-10.968057
215	0x3f2d6b30	0.6774168
216	0xc0978fb3	-4.7362914
217	0xc0034798	-2.0512447
218	0xc0061596	-2.0950675
219	0xc0a4c5e4	-5.1491566
220	0xc11ca028	-9.789101
221	0xc0b5a79f	-5.6767116
222	0xc0e0ba78	-7.0227623
223	0xc03c9b0e	-2.9469638
224	0xc0c81f4a	-6.2538195
225	0xc085153e	-4.158843
226	0xc1132cab	-9.198405
227	0x3ebad55b	0.36490902
228	0xc091d4c8	-4.5572243
229	0xc10d170a	-8.818125
230	0xc09386ac	-4.6101894
231	0x3e74107f	0.23834418
232	0xc0bb192a	-5.846822
233	0xbff6caa2	-1.9280589
234	0xc118c239	-9.547418
235	0x3f074c10	0.5285044
236	0xbfff4dcd	-1.9945618
237	0xc104e323	-8.305453
238	0xc0aef2ec	-5.4671535
239	0xc08240dc	-4.0704174
240	0xc0bf4d56	-5.9781904
241	0xc080296b	-4.005056
242	0xc07f9c44	-3.9939127
243	0xc0389422	-2.8840413
244	0xc12f3c93	-10.952289
245	0xc09ad84a	-4.8389025
246	0xc0dde5a6	-6.9342833
247	0xbf12e67c	-0.5738294
248	0xc0fc0ca5	-7.8765435
249	0xc0c71058	-6.220745
250	0xbf57283e	-0.8404578
251	0xc00550af	-2.0830495
252	0xc0cd1b91	-6.409615
253	0xc0f2340c	-7.5688534
254	0xc10e85ab	-8.907634
255	0xbfe6bb3d	-1.802589

l3.bias f4 [34]
0	0xc15e2781	-13.8846445
1	0xc15570a7	-13.340003
2	0xc1666ab3	-14.40105
3	0xc1717d22	-15.09305
4	0xc15b120f	-13.691909
5	0x3c6d4ef8	0.01448416
6	0xc16e9cb8	-14.913261
7	0xc16d0eab	-14.816081
8	0xc15d80b1	-13.843919
9	0xc159c9a5	-13.61173
10	0xc16301d2	-14.187944
11	0xc1534353	-13.203937
12	0xc1750c7b	-15.315547
13	0xc169b6bb	-14.607112
14	0xc15fd592	-13.989641
15	0xc159103c	-13.566463
16	0xc1727c6c	-15.155376
17	0xc14dc0e6	-12.859594
18	0xc173466c	-15.204693
19	0xbe878855	-0.264712
20	0xc160d2a2	-14.051424
21	0xc16aad1a	-14.667261
22	0xc1731fc0	-15.195251
23	0xc176414d	-15.390943
24	0x3e112211	0.14173152
25	0xbed65ba8	-0.41866803
26	0xc160f0c4	-14.058781
27	0xc1716a21	-15.08841
28	0xc166aa26	-14.41654
29	0xc173eec2	-15.2457905
30	0xc1677f3d	-14.468564
31	0xc15ed97a	-13.928095
32	0xc151c734	-13.111134
33	0xc16c77ae	-14.779219
